save/model.pt (torch, 164365 bytes, 12 tensors)

main.0.weight f4 [128, 24]
00000000: be41 62bc d53d 093e 192f 0abe cef0 42bd
00000010: 4650 803d 9113 8a3d 8f33 373e bb2b e4bd
00000020: 8939 13be 6a61 283e 1859 2cbd db0f 8b3e
00000030: aa52 243e 27ed 10be 5b13 c7bd 14e2 9f3d
00000040: 4223 0cbd 6c28 64bd 35a2 983d f80d dbbd
00000050: 777c 60bb ae6d 9f3d c296 90b9 c374 6bbd
00000060: f992 0d3e 4957 213e 0718 283e cf49 4fbe
00000070: 4574 223d 1f4a 75bc 5cb6 d3bd 7084 25be
00000080: 663e 43be 6a8a bd3a eb6c cbbd deac 0fbe
00000090: 8324 d439 5d45 693e 94c7 dbbd 5753 c2bc
000000a0: a0e7 6f3e 67da e9bd 5a4b 663e 8d44 d6bd
000000b0: e643 a0bd a817 c53d 83d6 5e3d efda 70bd
000000c0: ed18 5f3c 1116 f53d 5c92 0d3b 8d4a 1fbd
000000d0: 29d6 1c3e 1b15 dc3d c877 ffbc 2f75 333e
000000e0: b9c8 8e3b f690 083e f88b 5abe 464e 4b3e
000000f0: c8d4 81bd 2110 0fbd 2466 563e cd45 4f3b
00000100: 37d7 3f3e 7852 d53b 1abe 4e3e b25d c5bd
00000110: b35b 523d 12b6 dd3d f2ba c03d b25c 13be
00000120: fac7 573d 893d 24be 496d 5c3c b637 4c3e
00000130: 16e8 abbd bee6 a0bd afdb 10be ac03 a93c
00000140: e1d2 3e3e aa9b 663e c0c2 00be 834c ff3d
00000150: 8b08 3dbe 76e7 91bc 37ce 423e 422b 8bbd
00000160: 0880 1bbd fb05 24bd 6798 493d f4d5 83bd
00000170: 8965 bb3d f26a 95bb 2b66 dbbd 3d28 33be
00000180: 85da 44be 25a1 513e fce0 41bd 02c2 193e
00000190: fb33 d0bc 708d 21bc 854e 81be 6dc0 9abb
000001a0: 87eb f1bc 602c 393e ca18 3b3e 85a5 2b3e
000001b0: 4b60 4b3e 327c 133d 2c6f 893b 087d a5bd
000001c0: 622e 6c3e 95a5 a43d 2720 4c3e 4706 9ebd
000001d0: e483 8b3e 37a3 e0bd 826e 243e 06b9 2c3e
000001e0: 09de 0a3e ee9c 763d 5585 2e3d b406 c93c
000001f0: 0028 b4bd e2d5 62bc a9f4 dabd b942 2e3e
00000200: ea73 963d 4c31 a8bd 0e01 0bbe d469 90be
00000210: a653 8f3d 3fe5 e83d 707b cb3d 57a7 cf3d
00000220: 4b42 ea3b d003 763e f8ea 983c e96f 803d
00000230: 453d 0cbd 9c0c febd c6d9 1fbe 2309 333e
00000240: a32b cbbc e417 cb3d 7afe 133e bda2 ee3c
00000250: 00c5 60bd d74a 133e 6f13 5a3e 0a23 e6bd
00000260: d3c0 42bd fc2f 5fbe fb99 313e 8b6b bfbd
00000270: 446d f7bd 904a 0c3b 1862 9fbc a5e3 3fbc
00000280: a404 823b 2c53 2abe 666f 863c ca6c 9c3d
00000290: 8c5e babc 3d0b 27bc c9d6 a1bc 2d5a efbb
000002a0: cc6e 333e 1e1a 3bbe 29b3 89be f164 36bd
000002b0: 7fec 1a3e 65e8 1d3e 32a4 b4bd 1f2b 67be
000002c0: a4d6 e33d ab1a 983d bc8a f13d 87c1 83be
000002d0: edbe 29bd cd74 8c3d bbd7 04bd 05f1 babd
000002e0: 0619 0c3e fcd4 8e3d b71e 2fbd 62ee 283e
000002f0: 9ad8 acbb df3a 7fbd d9e9 3e3d 244e 37be
00000300: 7e28 a4bd c305 753d fe16 01be 3b61 90bd
00000310: 9aaf c3bd 3883 1cbe 0961 aa3d ed68 1f3e
00000320: 313a 3c3e 850f 1fbe 4b29 193e 5e74 003d
00000330: a915 ffbb dd75 7d3d 1fb5 2fbe 6f34 fd3d
00000340: cb90 133e 897f 04be 3f9b b03b 80a1 623a
00000350: 74fd a5bd fe51 45be bc0b cdbd b956 0b3b
00000360: e3fa 543e c5e3 ccbd 4f7e 393e 78e2 183d
00000370: e951 c1bc 25d3 2bbe 6795 bc3d 64d2 e5bc
00000380: 1281 1ebe b8af b53d 867d c23c 8714 47be
00000390: 62c7 663e c0e5 5a3e 0a02 eabd b71d 1c3e
000003a0: 9c3a 5a3e ffe7 1b3e ba50 c4bc f4a1 e83d
000003b0: d151 443e abaf 5d3d 66a1 a1bc 378a 313c
000003c0: 326d 723e 74e3 83bc dbe3 4c3d 5fac 99bd
000003d0: b7f6 423e 180f 883c 3168 193e ebf0 12bc
000003e0: fc79 ccbc 26a2 273e 3944 463c 6aad e33d
000003f0: b259 483e 98be 6cbe 79a8 b7bd 34d5 c03d
-0.0138096195 0.13402493 -0.13494529 -0.04759293 0.06265311 0.06742013 0.17890762 -0.111411534
-0.14377417 0.1644341 -0.042077154 0.27160534 0.16047159 -0.14152966 -0.09720489 0.07806793
-0.034213312 -0.05570261 0.074528135 -0.10696024 -0.0034253874 0.077845916 -0.00027578144 -0.0574844
0.13825597 0.15755953 0.16415416 -0.20243 0.039661665 -0.014971285 -0.10337517 -0.16163802
-0.19066772 0.0014460806 -0.09932884 -0.14030787 0.00040462994 0.22780366 -0.10731426 -0.02372138
0.23428202 -0.1141861 0.22489682 -0.10462294 -0.078254506 0.09623653 0.054403793 -0.05880254
0.013616783 0.119670995 0.002160213 -0.038889457 0.1531607 0.10746213 -0.031185046 0.1752517
0.004357424 0.13336548 -0.21342456 0.19854078 -0.06339413 -0.03492749 0.20937401 0.0031627298
0.18734442 0.006510075 0.20189705 -0.096370116 0.051356982 0.10825743 0.09410657 -0.14390829
0.052680947 -0.16039099 0.01345379 0.19943127 -0.08393876 -0.078565106 -0.14146303 0.020631634
0.18635131 0.22520319 -0.12574291 0.12465765 -0.1846029 -0.017810564 0.19023977 -0.0679536
-0.037963897 -0.040044766 0.049217608 -0.06437293 0.09150226 -0.004559868 -0.10712846 -0.17495818
-0.19223984 0.20471628 -0.047333702 0.15015414 -0.025415411 -0.0098603815 -0.25255218 -0.004722646
-0.029531254 0.18083334 0.18271175 0.1676236 0.19860952 0.036007114 0.004194161 -0.080804884
0.23064569 0.08039395 0.1993414 -0.07716041 0.27249062 -0.10968631 0.1605778 0.16867456
0.13561262 0.060208254 0.042607624 0.02453933 -0.08796692 -0.013844939 -0.106911965 0.1701764
0.073463276 -0.08212528 -0.13574621 -0.2820574 0.069983765 0.1137185 0.09935653 0.101393394
0.007149016 0.24024892 0.01866673 0.06271345 -0.03423812 -0.12404749 -0.15610418 0.17483954
-0.024801081 0.09916666 0.14452544 0.029130334 -0.054875374 0.14384018 0.21296476 -0.11237152
-0.047547173 -0.21795648 0.17343895 -0.09346684 -0.12081388 0.0021406747 -0.019455954 -0.0117119895
0.0039678384 -0.1663329 0.01641054 0.07637937 -0.022750162 -0.0101955505 -0.019755738 -0.007304451
0.17522734 -0.18271682 -0.268945 -0.04452986 0.15129279 0.15420683 -0.0882038 -0.22575043
0.11124924 0.074269615 0.117940396 -0.25733587 -0.041441847 0.068582155 -0.0324323 -0.09128002
0.1368142 0.06974217 -0.0427539 0.16497186 -0.0052748444 -0.062312003 0.046609733 -0.17900902
-0.08015536 0.059819948 -0.12606427 -0.07049795 -0.09554978 -0.15284431 0.08319289 0.1556737
0.18381573 -0.15533264 0.14957158 0.031360976 -0.0077845645 0.06187998 -0.17158936 0.123635165
0.14410703 -0.12939276 0.0053896005 0.0008645281 -0.08104983 -0.19269559 -0.10012004 0.0021261408
0.2079883 -0.10004381 0.18114589 0.037325352 -0.023598628 -0.16779764 0.09208184 -0.028054424
-0.15478924 0.08871406 0.023741495 -0.19441424 0.22536996 0.21376705 -0.1142617 0.1524571
0.2131142 0.15225218 -0.023964275 0.11359015 0.19171835 0.05412261 -0.019730281 0.010836176
0.23674467 -0.016099669 0.050021987 -0.0750358 0.19039427 0.01660876 0.14981152 -0.008968572
-0.02496051 0.16370448 0.0121012265 0.111170605 0.19565466 -0.23119581 -0.089676805 0.09415665

main.0.bias f4 [128]
00000000: 996a 9b3d 9020 173e dd8a 05be 0de8 95bd
00000010: 8e9c 78bc 9b90 473e 0ce6 a23d b4b6 4abe
00000020: a2ca 11be 1918 3dbd 2766 08be 0c27 683c
00000030: c7f1 f83a 24be 0fbe 1575 2b3d 7bb4 e3bd
00000040: 7b0f b0bd ca95 06be de6d 90bd 453d 0f3e
00000050: 3dea 293e 1b81 163e 70af 8f3d 6b82 ad3d
00000060: 290c 543e b10a eb3c 86a0 2c3e dbc8 d8bd
00000070: b3a6 e13d 6e55 f8bd a719 b53d 66a3 323e
00000080: 6b46 313e d000 033e b0c4 123d 2cd4 8cbd
00000090: 3aca 1fbd 9234 df3d f4d3 8c3d bce0 e5bd
000000a0: a190 3f3e b3ea 683d ea40 303e 9911 b13c
000000b0: bebf 723e 8ae4 14be cb25 50ba 69a0 be3d
000000c0: 6855 393d a23e 413e 5073 463e 13f2 45bd
000000d0: 7d04 2ebc 4ebf 6fbd a29e a73d 5a87 7e3d
000000e0: 3f2f a93d a7dc 133e 701c 493e bff9 003e
000000f0: cebf 36bd 7901 bebd 403c f43d 9b10 38bd
00000100: f587 2f3d ce05 3bbe af9c a23d 9498 613e
00000110: a550 90bb 3ccf 16bd 1ae0 d7bb 1852 36be
00000120: 771f 4dbd c713 bdbc d7d4 93bd 900f de3d
00000130: d651 da3d 96da 20be ab7b e2bd 9a0e b33d
00000140: 61fc 61bc ef7d 5fbe 9ddf 2c3e f988 b13b
00000150: e533 5b3e b565 c73d 29b0 c1bc f086 01bd
00000160: 4eb4 d23d e921 03be ff26 69bd c20b 77bd
00000170: 51b6 d63c 1149 293e 1285 99bd 6e11 64bd
00000180: 00ef 6b3d 0a63 5f3e fa4e 283e ed0a af3d
00000190: 78e9 1ebe fa3a 813d fc67 a13d 1e34 0f3e
000001a0: f6be 523e 8ad7 323e 0ce4 a93d e86e 16be
000001b0: e671 0e3e 7554 0fbd 0aa0 09be 6223 90bd
000001c0: 8097 2abe 489f 993d 88cf 1a3e 8c31 223e
000001d0: 1fa4 2c3d a83b b8bd 305a 07be 0254 06be
000001e0: 416a debc 1cbd 433e 9bbb c8bd ee3c 0e3e
000001f0: 835e 2bbe 21a6 b83d 74fb 0c3e 6af8 e23d
0.07588691 0.14758515 -0.13041253 -0.07319651 -0.015174044 0.19488756 0.07954034 -0.19796258
-0.14237455 -0.04616556 -0.13320218 0.014169466 0.0018992954 -0.14037377 0.041859705 -0.11118408
-0.08596703 -0.13143077 -0.070522055 0.13988216 0.16593261 0.14697687 0.07015884 0.08472141
0.20707764 0.028691621 0.1685811 -0.10585185 0.110181235 -0.121256694 0.088427834 0.17445144
0.17312019 0.12793279 0.035832107 -0.06876406 -0.039011218 0.10898699 0.06876364 -0.11224505
0.18707515 0.05686445 0.17212263 0.021614837 0.23705956 -0.14540306 -0.0007940202 0.093079396
0.045247465 0.18871549 0.19379926 -0.048326563 -0.010621187 -0.05853205 0.08184554 0.0621408
0.082609646 0.14439641 0.19639754 0.1259527 -0.044616513 -0.09277625 0.11925554 -0.04493771
0.042854268 -0.18263933 0.07940041 0.2203086 -0.004404145 -0.036818728 -0.0065879943 -0.17804754
-0.050078835 -0.02308072 -0.0721833 0.10842812 0.1066014 -0.15708384 -0.11058744 0.087430194
-0.013793082 -0.21825384 0.16882177 0.0054179397 0.21406515 0.09736196 -0.02364357 -0.031622827
0.10288297 -0.12805904 -0.056921955 -0.060313947 0.026209982 0.16531779 -0.07496084 -0.055680685
0.057600975 0.21815124 0.16436377 0.08547006 -0.15518749 0.06310077 0.078811616 0.13984725
0.20580658 0.17465034 0.082954496 -0.14690745 0.13910636 -0.034992654 -0.13439956 -0.07037999
-0.16659355 0.075010836 0.1511823 0.15839213 0.042148706 -0.089957535 -0.13217998 -0.13117984
-0.027150275 0.19115108 -0.09801408 0.1389043 -0.16735272 0.090160616 0.13767797 0.110825375

main.2.weight f4 [128, 128]
00000000: b79f 9fbd 71a0 4fbc 3af2 62bd cd3d ef3c
00000010: e1a9 debd 149c 033e 9457 9c3d 195d 913d
00000020: b2ef b03d c79d 903d 00ce a0bd f468 d7bd
00000030: 67cc 95bc 9fee ffbd 763c 8ebd 45dc c03d
00000040: e4c2 f03c 221d bfbc 4f76 4d3d 8ee5 7e3c
00000050: 940e cabc 624d a43d 294c ae3d 331f cbbd
00000060: 12d8 15bd 6619 94bb 84a4 a23d e147 febd
00000070: f1cf c33d e286 06be f4cf 9a3d 09d3 1a3d
00000080: 4077 873d d638 b33d 4b6a edbb 342c c0bd
00000090: c3e6 743c eb87 bd3d 3012 f53c 7080 0e3a
000000a0: 6858 9cbd d0fd c03d c066 fb3c 2944 0fbe
000000b0: 3c06 b4bc dc19 033d d52e 653b 4da3 a13d
000000c0: 66bb 193d 4e22 1bbd 6dbc e9bc 7660 afbd
000000d0: 5ab2 073c 03fc 0b3d 921d 07bd 9068 ca3d
000000e0: af4b c53d c1e5 e2bc 613a b53c 4faa b53c
000000f0: aaa9 003e a5c9 b23d 29a5 7f3d 9429 55bd
00000100: 4aff 07bd 428c 36bd 3331 bfbd f251 f23d
00000110: 8cde 0a3d 8605 8cbd dd25 d53c ad93 133d
00000120: 3095 c93d f933 95bd e8b7 f8bc b0b5 553d
00000130: 9ce6 863d adf3 45bd 1c08 ca3c 7e3f 5a3d
00000140: 4b9a 0fbe b877 b23c 4489 a43d f8aa e0bc
00000150: 47b1 033d ef77 d2bd 453b 9ebd 9191 293c
00000160: 795d 8cbd d1f7 bfbd 16e5 253c 41e6 0e3d
00000170: 2860 c83d 2f89 5e3d a8ae 703d d506 8ebd
00000180: fee9 c23d f973 943c e4bd dd3c fbf4 2bbc
00000190: 7b34 573d c14b 8dbd 16f1 0a3e 2b34 e53a
000001a0: 3bda b1bd f327 78bd c640 b5bc 7a89 edbd
000001b0: a4c5 293e 67bd 693b 8f1a e93d f5ad d53d
000001c0: d7a1 d5bd b216 c2bc 3af9 d53d 8fb4 35bd
000001d0: 9240 243e ae82 19bd e931 86bd 5c61 543d
000001e0: 6779 afbd e7d5 a73d dc96 d03d e539 58bc
000001f0: c06d f3bc 702c 1bbc f5c7 96bc 7d17 123e
00000200: fed1 08be 8d28 bcbb bf5b ccbd 2d77 c83c
00000210: 6e16 f5bc 61ee e23d 29a9 083d 2da2 133d
00000220: e938 c43c 635b 2b3e fab4 86bd 137c 0d3d
00000230: 95cb f8bc 0570 d73b 8031 1b3d 4401 8ebc
00000240: 543d 323d 426a 5dbd f47b 40bb 1872 d8bd
00000250: 3a26 37bc 7ddb 0b3b b05d 153d 6cf0 74bd
00000260: 1cfd a13d 86ab eb3d c644 863d 7862 a1bd
00000270: b8f7 7c3d f520 6dbd 9939 393d 0bf6 823d
00000280: 0307 dcbd d4c8 ae39 6ee5 493d fdbf 9fbd
00000290: b33a 023d 865a 563c 2256 d4bc fcc7 e9bd
000002a0: 1535 92bd 79ae c63d 7e13 953d 71ef 22be
000002b0: e5b6 e03c d81b 053d d7cc aabd 93d1 043d
000002c0: 54f8 ec3b f04e a63d f91a ea3d f60d fdbc
000002d0: 82de dabc 055c f53b 27e8 b7bd cfd0 183d
000002e0: 751b cf3d 0ba2 6d3b 539a 903c d737 e9bc
000002f0: a9ec 103d 2cce 6ebd e105 a93d d22d 0abc
00000300: 1c16 4abd e7a8 043c 9163 05be ba54 1d3e
00000310: 0c57 8abc 31a6 bcbd 6c1d e13d f904 273c
00000320: f2b2 7b3d 68c6 8c3c 2e7b 9cbd 2f69 8f3c
00000330: 254b 21be 25f4 2cbd 4386 d83d 0d8a c93c
00000340: 085c 1abe bb0e 243d c08a 50bd 6119 b43d
00000350: d6b8 48bc d1fe 1e3d 2093 5cbd 459a 14bd
00000360: 7958 463c edb9 3bbe 24ba 2c3d 6cde ca3d
00000370: 62a0 4d3d 7265 fc3d 477b 1b3d fc95 e0bd
00000380: d550 293e 6a74 b6bc eade 2ebe 89c3 993c
00000390: f8ba afbd b06c a5bd 025a 1f3e 052f a3bc
000003a0: b10e 5e39 5ce6 a8bb 4ea7 8dbd 2da1 e1bd
000003b0: 9f0d 513e a867 f63d 8c98 dd3d a2cd c73c
000003c0: b43b bcbd 95df 9e3c 2cc4 2ebc a842 8ebd
000003d0: 5d6e 2b3e 5a7e 23bd d7a0 13bd 2f89 a5bd
000003e0: 8779 58bb fe21 163d 3f06 523d 8a75 69bd
000003f0: da12 a1bd 263b ecbc 6f3b 933d 75c2 2f3d
-0.07794135 -0.01267253 -0.055406787 0.029204274 -0.108722456 0.12852508 0.07633892 0.07097835
0.08639468 0.07061344 -0.078517914 -0.10518065 -0.018285943 -0.12496685 -0.06945126 0.09417013
0.029389806 -0.023329321 0.050161656 0.01555766 -0.024665155 0.08022572 0.0851062 -0.0991806
-0.036583014 -0.0045196293 0.07941535 -0.124160536 0.09561146 -0.13137391 0.07559195 0.037798915
0.06614542 0.08751075 -0.007245337 -0.09383431 0.014947596 0.0925444 0.029915899 0.0005436009
-0.0763405 0.09423411 0.030688643 -0.13990845 -0.021975629 0.032007083 0.003497054 0.07892475
0.037532233 -0.037874512 -0.028532231 -0.0856332 0.008282268 0.034175884 -0.032987185 0.09883225
0.09633576 -0.027697446 0.022122564 0.022175936 0.12564722 0.08729867 0.06241337 -0.052041605
-0.033202447 -0.044567354 -0.09335556 0.11832036 0.033903643 -0.06836991 0.026019031 0.036029506
0.098429084 -0.072853036 -0.03036113 0.052175224 0.06586954 -0.04832809 0.02466207 0.053283207
-0.14023702 0.021785602 0.08033994 -0.027425274 0.032151487 -0.10276782 -0.077261485 0.010349647
-0.06853766 -0.09373439 0.010125419 0.034887556 0.09783965 0.054330047 0.058760315 -0.06934897
0.09517287 0.018121706 0.027068086 -0.01049542 0.052540284 -0.068992145 0.1356853 0.0017486861
-0.08684202 -0.060584974 -0.022125613 -0.11598487 0.165793 0.003566587 0.11382019 0.1043357
-0.10431259 -0.023692463 0.10447927 -0.044361647 0.16040257 -0.03747814 -0.06552488 0.05185066
-0.085680775 0.081950955 0.10185024 -0.013197397 -0.029715419 -0.009471044 -0.018405894 0.14266773
-0.13361356 -0.0057421387 -0.09978437 0.02447089 -0.029917922 0.110806234 0.03336445 0.036043335
0.023952918 0.1673408 -0.06577487 0.034542155 -0.030370513 0.006574633 0.037889004 -0.017334588
0.04351552 -0.054056413 -0.0029370757 -0.10568637 -0.0111785475 0.0021340542 0.0364663 -0.059799597
0.07909605 0.11507325 0.06556086 -0.078801095 0.06175968 -0.05789276 0.045220945 0.06394585
-0.10743525 0.00033337495 0.049291067 -0.07800291 0.03179426 0.013083106 -0.025919978 -0.11415097
-0.07139031 0.09701247 0.072791085 -0.15911652 0.02743096 0.032497257 -0.08339851 0.032426428
0.0072317515 0.08120525 0.11430926 -0.030890446 -0.026717428 0.007487776 -0.089798264 0.03730851
0.10112659 0.0036259915 0.017651713 -0.02846901 0.035381947 -0.05830209 0.082530744 -0.008433776
-0.04933749 0.00809691 -0.13026263 0.15364352 -0.01688721 -0.09211386 0.1099194 0.010194057
0.061449952 0.017184451 -0.07640682 0.01750621 -0.15751322 -0.042225022 0.105724834 0.02460196
-0.1507417 0.04005311 -0.050913572 0.08793903 -0.0122511 0.03881723 -0.053851247 -0.036279935
0.012106054 -0.18332644 0.042169705 0.09905705 0.05020178 0.12324037 0.037959363 -0.10966107
0.16534741 -0.022272307 -0.17077222 0.018769996 -0.08580583 -0.08077371 0.15561679 -0.019919882
0.00021177043 -0.005154414 -0.069166765 -0.1101707 0.20415352 0.120314896 0.10820112 0.024390046
-0.09191075 0.019393722 -0.010666888 -0.069463074 0.16741319 -0.03991542 -0.03604206 -0.08082806
-0.003303142 0.03665351 0.051275488 -0.05699686 -0.07864924 -0.028836798 0.071890704 0.042910058

main.2.bias f4 [128]
00000000: 934a 56bd e668 0c3d ae0a 31bd 8f47 a33d
00000010: b172 02bd c88a 8abd fedc 733d 7b04 ca3d
00000020: fd19 84bc e777 993d 3e23 983d 0554 213d
00000030: d86c 42bc 63b4 2c3d 5605 613d bfca c53d
00000040: 5daa c4bb 23cb 50bc ccf3 40bd a1d9 293d
00000050: 79ec 7e3d 56ee a2bd a39b 9ebd 2698 6a3d
00000060: 39b6 09bd 519c 913d 6bfe 80bd 2d4c 143d
00000070: f8de a43d c0bb 8dba 04d8 4b3d 474c d93b
00000080: eb08 d33c 3c4c e5bc a8f2 133d 5bae 01bd
00000090: 30c8 c53d d0a4 8fbd 2b1c 0b3d 6a71 d93b
000000a0: 1aa1 913d 98d4 ac3c 0eb0 c0bc 3e19 053d
000000b0: 6c47 c73d 0f69 fe3d 6524 2abd 5193 6a3d
000000c0: a574 4f3c f5b1 983d 81b8 243d 3227 11bd
000000d0: 311a 0c3d 3c5d 50bd 004e 933c 2a38 973d
000000e0: c2be 28bd e72c 1c3d 4c4a 963b 4b4a aeba
000000f0: 4a90 b73d f757 a5bc 0fc0 6f3d 13a9 72bd
00000100: 4248 043e 2c61 cd3c d43f bfbd 5e82 05bd
00000110: 20cd 4fbd e871 9c3c a9aa 0e3d 76fc ca3d
00000120: 5281 223d 38df 0c3d f971 a43d c19b c13c
00000130: 875d 013d 89ab 8e3d 137e 363c 3fac 763d
00000140: 21b7 5bbd d974 733d bf9f 923d 620c 25bd
00000150: 553e a0bc f9a2 b93d d978 d0bc 40f4 abba
00000160: 4c59 803b 4395 423d c712 aebd 13e0 b53c
00000170: dabe da3c d152 943b 7463 0d3d 8ad7 bc3c
00000180: 696e 30bd 9938 82bd 1f71 84bc a3de 67bd
00000190: 1033 1cbd 8186 52bd 01b7 ab3c 80be 283c
000001a0: 8f2f 7cbd cd89 afbc d081 b13c f41f 09bd
000001b0: 6e24 38bd 6ce2 9c3d 4214 aebd e3cd bb3c
000001c0: eaa0 dfbc 1ccd 4cbd 46a3 a03d a1bb 9e3d
000001d0: 4f2e 8e3d 6729 f0bc 78de af3d 30d4 dd3c
000001e0: 7f04 e23c 2dd8 14bd 6b47 73bc 5b29 9b3b
000001f0: 74aa afbc 6875 ea3c 8c77 993a d3ad 64bd
-0.052317213 0.034279726 -0.043223076 0.07972633 -0.03184766 -0.06764752 0.059536926 0.09864136
-0.016125673 0.07493573 0.07428597 0.039386768 -0.011866771 0.042164218 0.05493673 0.096578114
-0.006001754 -0.012743744 -0.047107503 0.041467313 0.062237237 -0.07955615 -0.07744529 0.057274006
-0.033621047 0.07109893 -0.062985264 0.03620546 0.080503404 -0.00108134 0.049766555 0.0066314074
0.025761088 -0.027990453 0.036120087 -0.03166042 0.09657323 -0.07013857 0.03396241 0.0066358345
0.07110806 0.021097466 -0.02352145 0.032494776 0.097304195 0.12422382 -0.041538615 0.057269398
0.012662088 0.074558176 0.04021502 -0.03543777 0.034204666 -0.050870165 0.01798153 0.07383759
-0.041197546 0.03812876 0.0045864936 -0.0013297288 0.08963068 -0.020183546 0.05853277 -0.059243273
0.12918189 0.02507075 -0.09338346 -0.03259503 -0.05073273 0.019097283 0.034830723 0.09911434
0.03967411 0.034392565 0.08029551 0.02363384 0.031583335 0.069663115 0.011138457 0.06022286
-0.053641442 0.059437606 0.071593754 -0.040295012 -0.019560972 0.09064288 -0.02544825 -0.0013119057
0.003916895 0.04750563 -0.08499675 0.022201573 0.026702333 0.004526474 0.034518674 0.023051996
-0.043074045 -0.063584514 -0.016167222 -0.056608807 -0.038134634 -0.051397804 0.020961287 0.010299325
-0.061568793 -0.021428013 0.021668345 -0.03347774 -0.044956617 0.07660374 -0.084999576 0.022925323
-0.02729841 -0.050000295 0.07843642 0.07750631 0.069424264 -0.029316617 0.085873544 0.027078718
0.027590035 -0.036338974 -0.01484857 0.0047351546 -0.021443583 0.028620437 0.0011708601 -0.055829834

dist.fc_mean.weight f4 [4, 128]
00000000: ac43 c03d b969 303d 3b5b b33c 9b69 8c3d
00000010: fc9c 49bd a6c3 a2bd 0a9c 1dbd ab74 32bd
00000020: 6ef5 323d 58af 223d 05a5 07bd 1155 a93d
00000030: f513 fe3d 8af1 013d fb93 f0bd cd10 a33d
00000040: e970 aabc 00df d6bc 2599 7e3d 4233 413c
00000050: 70a4 fa3d 8926 cabd 9e19 97bd 27d9 e4bd
00000060: 91a7 a53d c56a 55bc 1105 c83d 774d a13d
00000070: 898c ce3d b04d b5bd 1bd2 cf3b 2558 a33c
00000080: 01b5 623d 2db2 c53d eb78 b23d 4372 f93d
00000090: a553 213c 9e45 873d a544 63bd d0d8 913d
000000a0: 69ae 13bd 5ccb 593d 09d1 a5ba 419c ddbd
000000b0: 9e75 8abd 641d b0bd 94c7 b93d 8e92 383c
000000c0: 8f06 8c3c 8283 babd f853 cf3d 0142 cd3d
000000d0: 3527 6b3d cb92 003d 03fb 7b3d 8e57 623d
000000e0: 10fe 24bc c57c 963d 1a09 8c3d bcde 763d
000000f0: f270 ee3d f23f 0abe 4b33 a1bd 56b0 333b
00000100: 6959 85bc 8181 693c 32c9 1e3d 45b9 7fbd
00000110: 57f6 113d 791d 473d 2002 aa3d a3b8 8c3d
00000120: 03f4 163d a887 073d e4dd a1bd 8ed4 5b3d
00000130: f7fd 9fbd 21aa e0bc 8518 8d3c 5e69 ecba
00000140: 49cd 9b3d 7650 89b9 6311 cb3d 8488 113a
00000150: 65ed 76bc f5dc 893d b613 783c 9910 803d
00000160: aede 91bd 8704 c6bd 36a9 18bd 0f7c 4fbd
00000170: 4764 393d 0682 6e3d 61db 8d3c 168e 54bc
00000180: 7862 00be 8a81 a43d 7524 a0bd 72ec c6bd
00000190: d862 b0bd 4561 053d 00c5 bb3c e12e 953d
000001a0: 6a03 a33d 6e0a 083e b775 a6bc 9cea f1bc
000001b0: 1657 c7bc 9840 77bd 1b7d 063d 1326 8abd
000001c0: 4621 d53d 5f45 3a3d 5b37 833d d8c5 96bd
000001d0: 8ea9 533d 6957 883c 7d79 e73c bcf1 38bc
000001e0: 5b64 b63d 7c15 dbbc 4c30 86bd 58b2 893d
000001f0: 4117 8c3d 16d9 89bb 3356 a03c 55cb 1ebd
00000200: 3281 a6bc fa44 a93d deab 743d ba85 d03d
00000210: b634 ffbc 6aa6 e9bb cf26 65bd 73f5 05be
00000220: ea64 50bd 7100 953d 3c9f 87bd 23d2 b63d
00000230: 10ee 89bd fd73 513d c4af da3b e4b3 c23d
00000240: 826a a23d 8c1c 6ebd 1aec cc3d 078b 4c3d
00000250: b045 fcbb a4dd a6bd 7c8e 8b3d a352 0f3e
00000260: 0a7b 003e 92be b63d 7f00 123e 0145 a73d
00000270: 69e7 b13c 9192 863c d224 97bc edc2 213c
00000280: ff01 fe3d ddef 9e3d d0a4 623d 7b36 b7bd
00000290: 3043 923d 03fe b4bd 7891 05be 9717 df3c
000002a0: 9faf 173e 930e 15be 1872 143e 1111 d8bd
000002b0: 8cd7 dbbd 9207 893d 8c66 843d ffe5 183e
000002c0: 27a2 3abd 7a3e 0ebe 868c 193e 8aca b4bd
000002d0: d197 80bc e14d 0a3e 2b68 073e 89f8 64bd
000002e0: dff1 8dbd 897e 5abd dc24 c33d c457 0a3d
000002f0: a770 e23d ceba 71bd 52ae cebc 81c7 293e
00000300: 8361 6a3d 27b6 88bb 3ae7 e83c a462 b73b
00000310: 8dae da3d b76a 85bd 8a1a 873d c292 d83d
00000320: 6aaa 6b3d e704 aabc e609 b7bd 4b39 c7bd
00000330: 2dc6 ffbd 305d bc3d 51d6 673d d545 c5bd
00000340: 8e52 8fbd 05f7 2bbe c2ce efbc 194b 24bd
00000350: 67a7 fabd 0eab 753d 0b2b b4bc 8c1b a5bd
00000360: 7db5 be3c 4a2f b6bd 12ef d4bd 054d b0bd
00000370: b5d7 e6bb 07ee a03d e5bc ad3d 5f1c e9bd
00000380: 0bcb 12bd 2aa1 82bd d235 a9bd c9f2 d83d
00000390: d801 18be 7ac8 e6bc 05e1 e1bd 67c7 e73d
000003a0: 2339 3a3d fb22 2abd 4e74 973d b2ed 80bd
000003b0: 4455 59bd 07fc f13d fa3a b33b 7d7d 3fbd
000003c0: 2766 413d 3f46 f33d 518e cfbc edac 03bd
000003d0: 3ccb d03d 64cb ee3d 448d 013e 479b 403d
000003e0: 4bca d13c 834e 81bd 4afb 0b3d d0df 0f3d
000003f0: a2ce 25bd 7d13 08be 7684 2abd b97a 2f3e
0.093879074 0.043069575 0.021894088 0.0685608 -0.049221978 -0.07947473 -0.03847889 -0.043568294
0.04369109 0.039718002 -0.03311636 0.08268178 0.1240615 0.03172449 -0.11746975 0.07962189
-0.020805793 -0.026229382 0.06215777 0.011792006 0.12238395 -0.09870631 -0.07377933 -0.11174231
0.080886014 -0.013025944 0.09766591 0.07876103 0.10085399 -0.08852708 0.006342185 0.019939492
0.0553484 0.09653125 0.087144695 0.12179997 0.009846603 0.06605075 -0.055485386 0.07121432
-0.036055002 0.053172454 -0.0012650798 -0.10820819 -0.06760715 -0.08599356 0.0907127 0.01126541
0.017092971 -0.091071144 0.10123438 0.10022355 0.057410438 0.031389993 0.06151868 0.05525928
-0.010070339 0.07348017 0.068376735 0.06027101 0.11642636 -0.13500956 -0.078711115 0.0027418337
-0.016277986 0.014252068 0.038766094 -0.062432546 0.03563532 0.04861209 0.083011866 0.06871154
0.0368538 0.033088356 -0.079036504 0.053669505 -0.07812112 -0.027424874 0.017223606 -0.0018036773
0.076075144 -0.00026190624 0.09915426 0.00055516534 -0.015071248 0.06731597 0.015141418 0.06253166
-0.07122551 -0.09668832 -0.037270747 -0.05065542 0.045261648 0.05822947 0.017316522 -0.012973329
-0.12537563 0.0803252 -0.078194536 -0.09713067 -0.08612603 0.032563467 0.022921085 0.07284332
0.079596356 0.13285229 -0.020319803 -0.029530816 -0.024333518 -0.060364336 0.032834154 -0.06745543
0.10406737 0.045476314 0.064070426 -0.073619545 0.05167537 0.016643243 0.028256172 -0.011288103
0.0890586 -0.026743643 -0.06552181 0.067234695 0.06840373 -0.004206787 0.019572353 -0.03876813
-0.020325277 0.08265109 0.059734218 0.10181756 -0.031153064 -0.007130434 -0.055945214 -0.13081913
-0.05087749 0.07275475 -0.066221684 0.08926799 -0.0673486 0.051136006 0.006673785 0.09506968
0.07930471 -0.058132693 0.1000597 0.049937274 -0.007698737 -0.08147743 0.06814286 0.13996367
0.12546936 0.08923067 0.14258002 0.08167458 0.02171679 0.01642731 -0.018450174 0.009873134
0.124027245 0.07760594 0.05533296 -0.08945938 0.07141721 -0.088375114 -0.13043773 0.027232928
0.14813088 -0.14556341 0.14496648 -0.1055013 -0.10734472 0.06690897 0.06464872 0.14931487
-0.045564797 -0.1389102 0.14995012 -0.08827694 -0.015697392 0.13506271 0.1322333 -0.055901084
-0.06930899 -0.05334333 0.09528515 0.033775106 0.11056643 -0.05901604 -0.025229607 0.16580011
0.0572219 -0.004172105 0.02843057 0.0055964757 0.10677824 -0.06514495 0.06596859 0.10574867
0.057535566 -0.02075429 -0.08937435 -0.09727725 -0.12488971 0.091974616 0.056600872 -0.0963246
-0.06998168 -0.16793449 -0.029273394 -0.04011068 -0.12238961 0.059977584 -0.02199318 -0.08061895
0.0232799 -0.088957384 -0.103971615 -0.0860844 -0.0070447573 0.078579 0.084832944 -0.113823645
-0.035838168 -0.06378396 -0.082622185 0.105931826 -0.14844453 -0.028171767 -0.11029247 0.1131733
0.045464646 -0.041537266 0.0739523 -0.06295337 -0.05305983 0.118156485 0.005469677 -0.046750534
0.04721656 0.11878633 -0.025336416 -0.032147337 0.10195014 0.116598874 0.12651545 0.047023084
0.025609156 -0.06313803 0.034175195 0.035125554 -0.040480264 -0.13288684 -0.04163023 0.17136659

dist.fc_mean.bias f4 [4]
00000000: b45a 90bd 568a a53d 0e1c a43b c32a e6ba
-0.0704855 0.08083026 0.005008227 -0.0017560351

dist.b_logstd._bias f4 [4, 1]
00000000: 7a92 953d 6816 89bc 08aa d9bd d4c5 0c3b
0.07303329 -0.016734317 -0.10628134 0.002148022

main.0.weight f4 [128, 24]
00000000: 1689 b33d 098d ddbd 0693 d13b 8745 1abe
00000010: 263c 3b3d 9950 1bbe 05b8 e3bd 3ccd e6bb
00000020: 2fa7 66bd 7f65 e1bd 5eae 6ebd d210 6dbe
00000030: a2df 353e 0ba6 5ebd 20b1 2c3e 450e 3b3e
00000040: 2d60 bbbc 2c5a 943e a00c 703e 73dc 66bd
00000050: 0119 2b3e 60f1 ea3d 8a77 4f3e 6e6e 843e
00000060: ef9d 6b3e 49ac 97be 7234 8ebe e97f 99bc
00000070: d789 66be f679 f3bd 01c6 58be 89cc a1bd
00000080: 9987 703e 109a a4bc fb8e 333e 6f8b 0c3e
00000090: 6cc2 1f3c 2337 373e 1e03 8bbd 869a b73d
000000a0: 5a5e 9f3c 5deb d93d e277 5a3e 3f08 4e3e
000000b0: e73c 20bd 3a6e 18be c16a 06be b727 763e
000000c0: 6a57 4e3e 86ed 69bd 9d58 88be fe6b 1dbe
000000d0: 11dd c73d b765 0f3d 803a 96be eb0e 4c3d
000000e0: c714 043c 0ac4 1bbe d0c9 9dbc fc4e a73d
000000f0: dcaa b2bb 5a52 54ba d187 993e 5d09 613e
00000100: 1120 d1bc 1939 13bd ca67 c9bc 7903 533e
00000110: 1c3c f8bd 95dd 9abd 8bdc c2bd 15be 2b3e
00000120: ddad debe a265 debe a4a7 c73d fbf8 4abe
00000130: 584c fd3d 39a6 b8bd 8f28 213e 1761 1d3e
00000140: 97bb ae3d 3cb4 133e cfef 313e 1a96 c5bd
00000150: 78df 453d 8faa fbbc 27a8 82bc 8ab1 dbbd
00000160: 6101 d4bd 716b babd 13bf a63d c7ac ac3d
00000170: 362b adbd 83f0 6cbb 07be 493e a0cc 893e
00000180: a161 983d fbf3 153e 2a24 ea3e a61d b13c
00000190: 6cf9 60be d1bb 3cbe 7bce 8e3d c445 263b
000001a0: 80d6 163e 6e62 ec3d e290 1b3e 9d29 28be
000001b0: 3066 b63c d074 d73d 1777 4c3e 8b28 803e
000001c0: d85b c7bd f1b2 c3bd f039 253e be87 c6bd
000001d0: 3734 743e 0f25 a93d aa02 973e 22d0 873e
000001e0: f10f 74be 6aa3 f5bd e841 833d 868b 87be
000001f0: d6ad c13d c6ab c83d a4ad 35be 1ab3 3e3d
00000200: 6667 233e 2848 a8bc 3ce6 823d 62c5 b4bd
00000210: 7846 023e 6a03 dd3d 02b5 cebc e214 b9bd
00000220: 933d 063e 6c21 fcbd 9a12 50be f8a2 ac3d
00000230: b577 aebd c9b6 ccbc 8229 d4bd 7a6d 303e
00000240: 70b2 fb3d 1e31 94bd a5ab 023f 4a1f 8c3e
00000250: 175e 563e 5051 463d 0a7a 0fbe 24e3 febc
00000260: 01d5 c13d 52f7 84bd 6be0 ab3d 3f73 43be
00000270: ae95 a33d 9ab2 203e 8e5f 1cbc 4805 a13d
00000280: 9abd 6bbd 91a4 c23d 6387 1c3d 5b3a 233e
00000290: b14c 8a3e 4be8 883e 0036 9d3e 002c d73d
000002a0: 70b9 593e ef3b e33d af02 dd3e 3291 cb3c
000002b0: 301a 3abe 72eb 66be 6acb 203e 1beb e53d
000002c0: 6b85 04be 8304 06be 33a8 0c3e 72d3 49be
000002d0: c0ff 0c3d 125d 13be 80e0 543e d172 793e
000002e0: ddb6 083e 85f7 f0bd ea2d 873e 2de6 293e
000002f0: 5e1d dd3c ddac 613c c5b2 97bd b6ef c8bd
00000300: 591d c13d 6041 13be acef 7bbe 2637 a0be
00000310: 12eb da3d 505a 313e 8429 5bbe 31fe da3d
00000320: 49af 313e 79c5 84be 3a04 91bb 9c63 33be
00000330: 4aba 8d3d c29b beb9 5ad4 d3bd 086c 5f3e
00000340: 09ff 513d 2a8e 1d3e 4e34 9e3d 8e3e 99bd
00000350: 6ed3 003c 3cc3 603d 9cc0 1abe 78aa 8a3e
00000360: c5e1 8dbe 6668 a0bd 17d8 46be d0ac 01be
00000370: 7e1f 71bd 1e99 613d 26f8 20bd 15a6 9abd
00000380: 9a5a febc 6b3d 56be 509b f33d 2ca5 a63d
00000390: d1fc 08be 24f3 113e 841b 0b3e fe7d 163e
000003a0: 16a3 413e 1888 8ebd d307 703d df14 1c3e
000003b0: 4f68 21be abc6 103d e74c f4bd 715e 923c
000003c0: bd45 a6be 72a9 a2be 45e4 afbd 55b3 0bbf
000003d0: c6b6 0b3e b9ef 01be 266c dbbd 528c 1b3e
000003e0: 684d 11be 6c76 b5bd eeee e43d c80b 03bb
000003f0: dbc4 babc 104d 21be 2fc8 ddbc b292 b6bd
0.087663814 -0.10817916 0.0063957004 -0.15065585 0.04571166 -0.15167464 -0.11119083 -0.007043509
-0.056311782 -0.11005687 -0.05827176 -0.23150948 0.1776109 -0.05435757 0.16864443 0.18267162
-0.022873009 0.28975046 0.23442316 -0.05636258 0.16708757 0.1147182 0.20260444 0.258655
0.23009466 -0.2962363 -0.27774388 -0.01873775 -0.22513519 -0.118884966 -0.21169282 -0.0790034
0.23489226 -0.020092994 0.17535011 0.13725065 0.009750944 0.17892127 -0.06787704 0.0896502
0.01945417 0.10640595 0.21334794 0.20120333 -0.03912058 -0.14885798 -0.13126661 0.24038588
0.20150533 -0.057111286 -0.26630107 -0.15373227 0.09758962 0.035009112 -0.29341507 0.049818914
0.008061594 -0.15211502 -0.01926127 0.08169362 -0.005452497 -0.00080994295 0.29986432 0.21976228
-0.025527986 -0.035943124 -0.024585623 0.20606793 -0.1212084 -0.07561795 -0.095147215 0.1677173
-0.43492022 -0.43436915 0.09748772 -0.19821541 0.12368077 -0.090160795 0.15738128 0.15369068
0.08531874 0.14424223 0.17376636 -0.0964777 0.04830882 -0.030720977 -0.015949322 -0.10727222
-0.103518255 -0.09102524 0.08141913 0.08431392 -0.084555075 -0.0036154098 0.19701396 0.2691393
0.07440496 0.14643852 0.45730716 0.021620583 -0.21970147 -0.18431021 0.06972977 0.0025371173
0.14730263 0.115422115 0.15191987 -0.16422124 0.022265524 0.10520327 0.19967304 0.25030932
-0.09734315 -0.09555615 0.16135383 -0.096938595 0.23848043 0.082590215 0.2949422 0.2652598
-0.23834206 -0.119940594 0.06409055 -0.26473635 0.09456985 0.09798388 -0.1774202 0.046557523
0.15957412 -0.02054222 0.0639157 -0.0882671 0.12722194 0.10791667 -0.025232796 -0.09037186
0.13109426 -0.12311062 -0.20319596 0.08429521 -0.08518926 -0.024989503 -0.103594795 0.17229262
0.122898936 -0.07235931 0.5104316 0.27367622 0.2093433 0.04841739 -0.14011398 -0.031114168
0.094644554 -0.06492485 0.08392414 -0.19086932 0.079875335 0.15693131 -0.009544266 0.078623354
-0.057553865 0.09504045 0.038215052 0.1594023 0.27011636 0.26739725 0.3070526 0.10506439
0.21262145 0.11095416 0.4316611 0.024849508 -0.18174052 -0.22550753 0.15702596 0.112264834
-0.1294152 -0.13087659 0.13736038 -0.19709566 0.03442359 -0.14390972 0.20788765 0.24360205
0.13351007 -0.117659606 0.26402217 0.16591711 0.026991542 0.013774124 -0.074071445 -0.09811346
0.09429426 -0.14380407 -0.24603146 -0.31292075 0.10689367 0.17319608 -0.21402556 0.106930144
0.17352022 -0.2593191 -0.0044255527 -0.17518467 0.069202974 -0.00036355673 -0.10343237 0.21818554
0.05126861 0.15386263 0.0772482 -0.074826345 0.007862909 0.05487369 -0.15112537 0.27083182
-0.2771131 -0.078324124 -0.19418369 -0.12663579 -0.058867924 0.055077665 -0.039299153 -0.07551209
-0.031049062 -0.20921867 0.11894858 0.08136973 -0.13377692 0.14252907 0.13584715 0.146965
0.18909869 -0.069595516 0.05860121 0.15242337 -0.15762447 0.035345715 -0.119287305 0.017867299
-0.3247508 -0.31769902 -0.08588461 -0.54570514 0.13643941 -0.12689103 -0.10713987 0.15190247
-0.14189684 -0.08860478 0.11178385 -0.0019996036 -0.022798946 -0.15752053 -0.027072994 -0.08914699

main.0.bias f4 [128]
00000000: 1d56 ae3e b091 0bbd 955e 953d 7c44 533d
00000010: b721 353c e4b4 17be 0649 04be 1f0f 543e
00000020: a365 93bd 82d2 183e f48a 053e 3b18 543e
00000030: f225 b4bc 576b af3a 2f9f e5bc 6d8e 123e
00000040: b021 27bd aa0e bf3c d1c4 3d3e 8904 6cbd
00000050: 236c 213e 478a 1d3d 88a3 4e3e c5c7 19bd
00000060: e90b 17be ca20 703e 7ae8 d7bd 8d1c 603e
00000070: 380d 4d3e babf ab3d c5a3 523e be04 4f3e
00000080: f7ec 87bc bd7c c23d bc6f 653e b2f6 833d
00000090: 61bd 3d3e 96a3 843e e280 a6bd 95d0 a5bc
000000a0: b630 f63b 029f 44bd 4924 733e 10d0 4c3e
000000b0: 5055 cb3d 98f4 553e 5d71 613e 87b5 903d
000000c0: ce1a 6c3e 12f7 603e 5798 633e c820 f6bc
000000d0: f799 64bd 9b65 393c 2ff9 363e d6e8 28bd
000000e0: 6e0f 873d ca3d a33d e8e3 4c3d 37da d8bc
000000f0: 0a55 9e3d bec5 063e 7275 fbbc 0d39 c83d
00000100: 3121 44be ac6f 8cbc 9131 23bd a5b5 493e
00000110: 65b5 a93d 9d96 503c 75b2 b13b 0893 853e
00000120: e83b 113e fa82 433e e3ec 913d de7a f33d
00000130: 3fde 04bc d415 473e bfdf 003e ead7 37bb
00000140: bc2c efbc 1b26 333e 950e b2bd 2aac 0abe
00000150: 0887 ef3d 64be 883e 9ea5 f6bd 565a f4bd
00000160: ebda d9bd 9575 ce3d b69f 26bb 10f9 2f3c
00000170: 85c0 0cbe c7c8 fbbd 31c7 07bd 05ee 23be
00000180: 961a 7d3d 74a9 de3c 9fd3 93bd d12d c3bb
00000190: fd16 703e 85a3 a83d b700 03be 45c2 3dbd
000001a0: 0654 cdbd 39be 8e3d 8432 cc3d 37ea 3f3d
000001b0: 513a cbbd 705c c6bd 998d 9abd 8648 393d
000001c0: 6936 503d 36b7 c43d 5c63 063e 9346 e0bc
000001d0: d54e 0e3d 6819 ddbd 4e98 3d3e 38d4 f13c
000001e0: 563d ef3d 3bb9 273e 7ef8 ebbd 3d0c 6a3d
000001f0: e7c9 f5bc bbf6 dabd 81d0 d23b fbae 68bd
0.34050074 -0.034074485 0.07293431 0.051578984 0.0110554015 -0.14815098 -0.12918481 0.20708893
-0.0719712 0.14924052 0.13041288 0.20712368 -0.02199075 0.001338343 -0.028030006 0.14312144
-0.04080361 0.023322422 0.18532111 -0.057621513 0.15763907 0.03846195 0.2017957 -0.03754403
-0.14750637 0.23450008 -0.10542388 0.21885891 0.20024574 0.08386178 0.20570286 0.20216653
-0.016592486 0.09496448 0.22405905 0.06443538 0.18529274 0.25906056 -0.08130051 -0.020241061
0.007513131 -0.048003204 0.2374431 0.20001245 0.099283814 0.20894086 0.22015901 0.070658736
0.230571 0.2196925 0.22226082 -0.030044928 -0.055810895 0.011315729 0.17868493 -0.041237675
0.0659474 0.0797077 0.050022036 -0.02647124 0.07731064 0.1316137 -0.03069565 0.097765066
-0.19153287 -0.017143093 -0.039842192 0.19698198 0.082865514 0.0127312215 0.005422885 0.26088738
0.14183009 0.19092932 0.07125261 0.118886694 -0.008109628 0.1944192 0.12585352 -0.0028052279
-0.029196136 0.17495005 -0.086941876 -0.13542238 0.11695677 0.26707757 -0.12043308 -0.11931293
-0.106374584 0.10081021 -0.0025424785 0.0107405335 -0.13745315 -0.122941546 -0.033148948 -0.16008766
0.061792932 0.02718041 -0.07218098 -0.0059563895 0.2344627 0.08234314 -0.12793241 -0.046327848
-0.10025792 0.06969876 0.099705726 0.046854224 -0.09923232 -0.096856 -0.07546539 0.04523518
0.05083314 0.09605257 0.1312384 -0.027377402 0.03474315 -0.107958615 0.18515131 0.02952014
0.11681621 0.16379254 -0.115220055 0.057140578 -0.030003501 -0.10691591 0.006433547 -0.0568075

main.2.weight f4 [128, 128]
00000000: cfab 1dbd fb5e a93d bde3 e03d be67 35bd
00000010: 9fc7 93bd b759 793d d4b8 b13c 9fc3 1d3d
00000020: 10c6 843c c023 883c 8bb4 ea3d e1ee 903d
00000030: 1dd1 bfbd b779 a4bb 9007 503e 47c7 bf3c
00000040: 3754 573d 45cc d13e 7f9b 843d 9ea2 9cbd
00000050: 2bf0 89bd 73be c33b 1a56 a5bb 1250 8f3e
00000060: 1a84 183e 5386 b33d 9f82 9a3d 5e78 413d
00000070: 55f5 223d 1871 3fbd 8f20 b83e e20c 9d3e
00000080: 20f1 f33e 9c75 173e 574c 8d3d 403a b43e
00000090: 3b0d 0c3d 06dd 41bb 0cf0 a8bd 169a ca3c
000000a0: 4977 c23c 578e e3bc 702c 893d 469b acbc
000000b0: 544d 343e 18db 403d 2385 c8bc 3abe 743d
000000c0: 41db 2c3d 8bb7 813d a83c 973d f770 c83e
000000d0: c6f3 babb 34d8 d03d f3a1 1b3e 0afd 953d
000000e0: 9c01 27bd 883e a1bc a7d7 113d 4d47 6e3d
000000f0: 76c2 8fbd 4278 493e d8f2 71bc ea61 efbd
00000100: 6a3b 1cbd a3cd 5d3e 340a 113d f63a fc3d
00000110: 679a cc3d d4d5 1e3e a7c9 20bd d78a d0bc
00000120: 5738 13bd 4b02 d73d efce 4cbd fdef b53c
00000130: d008 963e 6e8b 033d 00d2 afbd 8007 093e
00000140: b876 c13d 5126 6bbc d8e5 393b 692c 903e
00000150: 1b90 b2bd 3ce5 093e ffa2 023b 3597 8c3e
00000160: b571 0a3e 3583 cc3d 9734 a63c 7de7 bb3d
00000170: 5366 703e acfe 093c e620 b33c 3cf7 f13e
00000180: bf3d 143e 4304 283d c621 2f3e 21b6 1e3d
00000190: 5485 213d 236e 02bd ea0d 27bd f457 4e3e
000001a0: 39a5 993e fe16 7d3d 2ed1 9d3d 24bd ea3e
000001b0: 7cc6 45bd 8079 b43d 55fa d8bc b225 ae3e
000001c0: 38cb b8bc 2721 953e 3927 cb3d 260f fcbb
000001d0: 569f 013d b7bb 3dbd 4692 6bbd 1c26 6dbd
000001e0: a531 903e 840e 4cbc 283f 0d3e 46a3 483d
000001f0: 24d4 a33b b3eb 0c3e bcae 27bd 01f2 923e
00000200: a6c6 6dbc 6e9a d43d 86a8 2e3e 08a1 9b3d
00000210: 14d0 28bc 4d32 0e3d 665b ffbc b77b 963d
00000220: 48e0 553d 2b30 34bd dc13 a83d 9490 83bc
00000230: 223f 18bd 4436 da3d 6deb 043e b218 d13d
00000240: 5005 f4bc 18f1 ac3e 24d1 8dbd 19d3 cbbc
00000250: 4bbe ae3d 61ea 3d3c c71d 733c 3416 803e
00000260: 107e f33d 5a09 cebd ce14 213e 7864 a2bb
00000270: b86d 6dbc 23a4 f03c a671 543e f0f2 a33e
00000280: 4a71 ff3e 3bf9 d53d 1996 ecbc e3ab 743e
00000290: b2ec 4d3b e7f4 04bd 00e0 d5bd 6691 143d
000002a0: 5169 47bd 3072 cc3d c9f4 253d 2c69 fb3d
000002b0: 4d98 853e e2c3 6fbd a3e2 033e ddf9 bf3d
000002c0: bf5a f3bc 4399 f53c c82a bbbc 87f6 013f
000002d0: 52e3 b33c ff8d d33d 7d43 0f3e a479 813d
000002e0: 3ced c6bb bdbb 33bc aa8a 473d 3238 d93c
000002f0: 22d2 93bd 081f 313e c506 4bbd 5bfb 29be
00000300: 8eec 80bd 472d 633e c001 5c3d fdde 433d
00000310: d6f4 bcbb 4d5d 2d3b ae63 cf3d 0611 373d
00000320: ab67 c33d 446f bebb 1758 f43a 51f2 07bd
00000330: ab07 ae3e 2f93 c23d 22e8 5dbd 8b1d f33d
00000340: 5999 bcbb 3ca3 b33c dac5 e1bd f9b8 953e
00000350: 3298 26bd 77a4 003d e965 83bc b0bd 853e
00000360: ea2a f93d bce9 1a3e 5a8a 4f3d 9650 593e
00000370: 0fd7 703e 3e14 38bd 7cc3 363d d1f7 e13e
00000380: 309b 503e dc17 7c3c 5d3a 063e 3d72 85bd
00000390: ce9d fabc d6d5 05bd 9ee4 2ebd 42ca 8e3e
000003a0: fe3a a63e 9805 903d 19b9 833b 01b5 113f
000003b0: 6ec9 973d 5f79 d3bc 9903 90bc c464 683e
000003c0: 7302 8e3d 7c9e 6c3e 96c0 f03d 949b 32be
000003d0: 0767 473d 33db 39bd f4fc dfbc 67d7 143d
000003e0: a15e 483e a4d3 373b d490 b43c 2c33 a23d
000003f0: e141 74bd ad6b 0a3e 34fb 81bd 623f 923e
-0.038493928 0.08270069 0.10980938 -0.04428839 -0.07215809 0.060876574 0.021694578 0.038516637
0.016207725 0.01661861 0.11460217 0.070768125 -0.09366057 -0.0050193924 0.20315385 0.023410453
0.052570548 0.40976158 0.06474971 -0.07648204 -0.067352615 0.005973631 -0.0050456645 0.27990776
0.14894143 0.08765855 0.07544445 0.04723393 0.039784748 -0.046738714 0.3596234 0.3067389
0.476449 0.14790958 0.06899326 0.3520069 0.034192305 -0.0029581203 -0.0824891 0.024731677
0.02373852 -0.027777834 0.06697929 -0.021070134 0.17607623 0.047083944 -0.024477547 0.059751727
0.042201284 0.06333836 0.07384616 0.39148685 -0.0057053296 0.101974875 0.15198497 0.07323654
-0.04077302 -0.019683138 0.035606053 0.058173466 -0.07019512 0.19674781 -0.014767371 -0.116885975
-0.0381426 0.21660475 0.03541012 0.123159334 0.099903874 0.15511256 -0.03925481 -0.025456829
-0.0359424 0.10498484 -0.050002035 0.022209162 0.29303598 0.032115392 -0.08584976 0.13381767
0.09446472 -0.014352397 0.0028365757 0.28158882 -0.08718892 0.13466352 0.001993358 0.27459112
0.13519938 0.09985963 0.020288749 0.09175012 0.23476534 0.008422535 0.021866273 0.47258937
0.1447668 0.04101969 0.17102727 0.03874791 0.039433792 -0.031843316 -0.040784754 0.20150739
0.30008867 0.061789505 0.077059135 0.45847428 -0.048284993 0.08812237 -0.026486555 0.34013134
-0.02255784 0.29126856 0.099195905 -0.0076922355 0.031646095 -0.046321597 -0.057512544 -0.057897672
0.28162876 -0.012454633 0.13793623 0.048983835 0.0049996544 0.13761787 -0.040938124 0.2870026
-0.0145126935 0.103810176 0.17056474 0.07599074 -0.010303516 0.03471594 -0.031171512 0.073478155
0.052215844 -0.04399125 0.08206913 -0.016060151 -0.037169583 0.106548816 0.12980433 0.102097884
-0.02978769 0.3377769 -0.06924656 -0.024880933 0.08532389 0.011591525 0.014838642 0.2501694
0.11889279 -0.100603774 0.15730593 -0.0049558245 -0.014491491 0.029375141 0.20746478 0.32021284
0.4989112 0.104479276 -0.028880166 0.23893695 0.00314216 -0.03246012 -0.10443115 0.036271475
-0.048684422 0.09982717 0.04051665 0.12275919 0.2609276 -0.058536418 0.12879424 0.093738295
-0.029706357 0.029980307 -0.022847548 0.50766796 0.02195898 0.10329818 0.13990588 0.06322029
-0.006070761 -0.010970053 0.048716225 0.026516054 -0.07217814 0.17296994 -0.049567003 -0.16599791
-0.06295119 0.2218524 0.053712606 0.04782008 -0.0057664914 0.0026453317 0.10126434 0.04469397
0.095412575 -0.0058116037 0.0018641975 -0.033190075 0.33990225 0.09500729 -0.054176457 0.11870869
-0.005755585 0.021928422 -0.11024065 0.29242685 -0.04067249 0.031406846 -0.016039805 0.26121283
0.12166388 0.15128225 0.05066905 0.21222147 0.23519538 -0.04494118 0.044620022 0.4413438
0.203717 0.015386548 0.13108201 -0.0651593 -0.030592825 -0.032674633 -0.042698495 0.27888685
0.32466882 0.07032317 0.004019868 0.56916815 0.074114665 -0.02581471 -0.01757984 0.22694689
0.06934061 0.23107332 0.11755483 -0.17442161 0.04868224 -0.04537506 -0.027342297 0.036338236
0.19567348 0.0028049732 0.022041716 0.079199165 -0.05963314 0.13517638 -0.06346741 0.28563982

main.2.bias f4 [128]
00000000: f006 2bbd 92f4 e73c 25da 44bd da92 cd3d
00000010: 4d08 aa3d 2fb4 d4bc 208a 10bc 0bfd 603d
00000020: 076b 053d a4dc 1bbd a561 173c bc46 ba3d
00000030: 7b4e b23d 6cfe 173d dc69 c93d 62b6 39bd
00000040: fac7 143d 2085 8bbd 581d 83bd f2c9 c73d
00000050: 2e1f 44bc ec17 993d 787f 193d 762b 363d
00000060: bb4a c33d 4abc 14bd e179 b93d d92c a53b
00000070: f2e8 fc3d fac5 c63c ad71 0bbd 8101 df3d
00000080: b49d 873d 5731 a93d 15ee 943d 996e 58bd
00000090: 5fb4 323d 1c6d 033d c572 ddbc f0ae 6dbd
000000a0: 0900 1b3e a73b 7a3c ffdc 203d ac6e 09bd
000000b0: 6f11 d9bc 70ef 98bc 3d8a d73d 6d0d 573d
000000c0: 732c 74bd 4bcf b93d b4e5 b3bc 2b1d 773d
000000d0: 985d c73c 924b e33d 5e58 683d 1369 573c
000000e0: 8c66 92bc 23db 1e3b b300 923d 2e43 2cbd
000000f0: 78e1 dd3b bb2f e33c 2f95 db3d 4d11 8c3d
00000100: 84e1 8fbd 8990 923d 5de5 893d 24db c83d
00000110: db36 163d 5347 d7bb 29a3 1abd 404d 1ebd
00000120: 1713 953d 9051 193d 910b b93c 984e 253d
00000130: 3e12 7f3d 786b 4abd cad1 733c 4df9 a0bd
00000140: 19dc ac3d e304 bd3b 1b87 8b3b 4def fa3d
00000150: 5030 cc3d dde6 213d fa97 cd3d c1b8 a63d
00000160: 6503 573c 88c2 c33d b99b 1e3d d7d5 97bd
00000170: 07cd b53c 06da 303c 046d 973d 4962 403d
00000180: 71d4 903c 7ddf f83d c6b6 bf3d 2c56 4bbd
00000190: 94a5 8f3d 829b 8dbd 8bfd 68bc f2db b03d
000001a0: 480c 9d3d 3c29 973d 599e 8abd 834c 073c
000001b0: 8a9d b93d 550b 123d 6f8d 6d3c f5d6 2b3d
000001c0: fe82 61bd dde7 433d c6ba b13d 4de4 783d
000001d0: 9f9d 0bbc 0a5a a8bd 4440 85bd ec23 323b
000001e0: 9ad7 223d 354d 84bd 47f2 9e3c aaa6 373d
000001f0: 9973 113e 6ec4 61bd e6d9 ff3d ea41 b43d
-0.041754663 0.028314862 -0.0480596 0.10037775 0.083023645 -0.025964824 -0.008821994 0.05492882
0.032572772 -0.038052216 0.009239589 0.09095523 0.08706375 0.03710787 0.09834644 -0.04533995
0.036323525 -0.06812501 -0.06402081 0.09755315 -0.011970324 0.07475266 0.03747508 0.04447504
0.09535738 -0.03631238 0.0905645 0.0050407466 0.12349118 0.024264324 -0.034043957 0.10888959
0.06621876 0.08261364 0.07271973 -0.05283985 0.043629047 0.032086477 -0.027032265 -0.05802816
0.15136732 0.015273011 0.03927326 -0.03355281 -0.02649757 -0.01866886 0.10524414 0.05250304
-0.059612703 0.09072741 -0.021960117 0.06033055 0.024336621 0.11098398 0.0567249 0.01314761
-0.017871164 0.0024239502 0.071290396 -0.042056255 0.0067712627 0.02773272 0.10721814 0.06839237
-0.070254356 0.07156474 0.06733201 0.09807423 0.036673408 -0.006569782 -0.037753258 -0.03864789
0.07279032 0.0374313 0.022588523 0.040358156 0.062273256 -0.049418896 0.014881561 -0.0786005
0.08440418 0.005768405 0.004258049 0.12252674 0.099701524 0.03952681 0.10038753 0.08140708
0.013123368 0.09558588 0.038722727 -0.074138336 0.022192491 0.010794168 0.0739384 0.046968732
0.017679425 0.12152002 0.09361033 -0.049642727 0.070140034 -0.069144264 -0.014220606 0.08635701
0.07668358 0.07380912 -0.06768484 0.008257988 0.09063251 0.03565534 0.014499052 0.041953046
-0.055056565 0.047828544 0.08678202 0.0607646 -0.0085214665 -0.082202986 -0.06506398 0.0027182056
0.039756395 -0.064600386 0.019402636 0.044836678 0.14204253 -0.05511897 0.12492733 0.088016346

main.4.weight f4 [1, 128]
00000000: f1f1 2fbe 1d22 90be 8602 3c3d df79 71be
00000010: 31a3 823e 15f0 41be 27cf a83e 07db 41be
00000020: 79de 603e 9a44 55be d61c 79be 972b 3bbe
00000030: c273 a93e 9aa4 2abe 5073 6abe ba56 1dbe
00000040: 0574 843d dbe0 8c3d 572b 5fbe 3144 29be
00000050: 35f3 0d3e 1ac7 823e 450f 6b3d 8c90 9abe
00000060: 3432 52be 436a 58be b51b 34be c28a 3c3e
00000070: eba1 413e ba2b 973e 6e9b 62be 108f 3b3e
00000080: cfaa 733e b558 1a3e 8b73 753e a029 70bb
00000090: a2a4 75be 9845 4bbe 96d5 bf3c a215 5fbe
000000a0: d4dd 153e 76f2 72be 31a7 21be 2128 8b3d
000000b0: eac9 70be 02f4 16be 0e27 75be e657 9e3d
000000c0: ecbf 433d e1df 67be f403 9c3d 0b7e 213e
000000d0: 6e0b 82be 091d 7fbe 4ec7 6abe d4fa 7bbe
000000e0: fc62 2abe f3d6 593d 7d42 93be 71d0 603d
000000f0: 6702 4abe 67f4 cf3e c14f 21be 1396 26be
00000100: 668b 99be 4846 44be 2e27 bd3e 82a9 04be
00000110: b13b 203d 12d3 73be 6832 7c3d 7157 9dbe
00000120: 3d0f 3cbe 069f 8bbe d872 123c 6623 78be
00000130: d286 85be ddd5 42be afc7 80be 5800 2e3d
00000140: 8633 4cbe 0df8 283d ad10 69be 422a 5ebe
00000150: 1d50 463e 7611 0e3c 2c90 343e a3d5 d13e
00000160: 37c1 5ebe 5b76 94be 8f06 a83d 322f 3f3d
00000170: 0ac8 8b3d cbf7 563e db0d c2be a85b 54be
00000180: db02 13be 6271 833e 0dde 52be 9c1a a43c
00000190: 5d57 7abe f4a9 9e3d 6d52 093d ac19 65be
000001a0: abe3 17be ec6e 52be 8b11 3c3d ada5 6f3c
000001b0: df1d 97be 5249 07be 1789 033c e282 83be
000001c0: 8060 563a 9f10 79be ae3f 52be 2afa 59be
000001d0: c0a9 6a3e 571e 853d 2651 323d c2a2 1fbe
000001e0: 66c7 9e3d 2888 483d 5e30 923e ea4c 073d
000001f0: a6b4 603e 829a a33d cfea 573e 7980 ac3e
-0.17182137 -0.28151026 0.045900844 -0.23581646 0.2551513 -0.1893924 0.32970545 -0.18931209
0.21959867 -0.2082695 -0.24327406 -0.18278347 0.3309613 -0.16664353 -0.2289555 -0.15365115
0.064674415 0.06878825 -0.21793877 -0.16529919 0.13862307 0.25542527 0.05738761 -0.30188406
-0.20526963 -0.21134286 -0.17588694 0.18412307 0.18909423 0.29525548 -0.22129604 0.18316293
0.23795627 0.15072902 0.23969857 -0.0036645904 -0.23988584 -0.19850767 0.023417275 -0.21785596
0.14635402 -0.23725304 -0.15786435 0.06794763 -0.23514524 -0.14741519 -0.2394068 0.07731609
0.047790453 -0.22643997 0.076179415 0.15770738 -0.25399345 -0.2491342 -0.22927591 -0.24607402
-0.16639322 0.053183507 -0.28761664 0.054886285 -0.19727479 0.40616152 -0.1575308 -0.16268186
-0.29989165 -0.19167435 0.36943954 -0.12955287 0.039119426 -0.23810986 0.06157151 -0.30730775
-0.18365188 -0.27269763 0.008938514 -0.24232253 -0.26079422 -0.19026895 -0.25152346 0.042480797
-0.1994153 0.041252185 -0.22760268 -0.21695808 0.19366498 0.008671155 0.17633122 0.40983304
-0.21753393 -0.28996548 0.08204376 0.04667587 0.06825264 0.20992963 -0.37901196 -0.20738089
-0.14356558 0.25672442 -0.20592518 0.02003222 -0.24447389 0.0774726 0.033525873 -0.22373074
-0.14832942 -0.20550126 0.045915168 0.0146269025 -0.29514977 -0.13211563 0.00802829 -0.25685793
0.0008177832 -0.24322747 -0.20532104 -0.21286836 0.22916317 0.064999275 0.04353442 -0.15589431
0.07752876 0.048957974 0.28552526 0.033032335 0.21943912 0.079884544 0.21085666 0.33691767
